SSDLite(
  (0): MobileNetV2(
    (trunk): MobileNetV2(
      (features): Module(
        (0): Conv2dNormActivation(
          (0): Conv2d(3, 32, kernel_size=(3, 3), stride=(2, 2), padding=(1, 1), bias=False)
          (1): BatchNorm2d(32, eps=1e-05, momentum=0.1, affine=True, track_running_stats=True)
          (2): ReLU6(inplace=True)
        )
        (1): Module(
          (conv): Module(
            (0): Conv2dNormActivation(
              (0): Conv2d(32, 32, kernel_size=(3, 3), stride=(1, 1), padding=(1, 1), groups=32, bias=False)
              (1): BatchNorm2d(32, eps=1e-05, momentum=0.1, affine=True, track_running_stats=True)
              (2): ReLU6(inplace=True)
            )
            (1): Conv2d(32, 16, kernel_size=(1, 1), stride=(1, 1), bias=False)
            (2): BatchNorm2d(16, eps=1e-05, momentum=0.1, affine=True, track_running_stats=True)
          )
        )
        (2): Module(
          (conv): Module(
            (0): Conv2dNormActivation(
              (0): Conv2d(16, 96, kernel_size=(1, 1), stride=(1, 1), bias=False)
              (1): BatchNorm2d(96, eps=1e-05, momentum=0.1, affine=True, track_running_stats=True)
              (2): ReLU6(inplace=True)
            )
            (1): Conv2dNormActivation(
              (0): Conv2d(96, 96, kernel_size=(3, 3), stride=(2, 2), padding=(1, 1), groups=96, bias=False)
              (1): BatchNorm2d(96, eps=1e-05, momentum=0.1, affine=True, track_running_stats=True)
              (2): ReLU6(inplace=True)
            )
            (2): Conv2d(96, 24, kernel_size=(1, 1), stride=(1, 1), bias=False)
            (3): BatchNorm2d(24, eps=1e-05, momentum=0.1, affine=True, track_running_stats=True)
          )
        )
        (3): Module(
          (conv): Module(
            (0): Conv2dNormActivation(
              (0): Conv2d(24, 144, kernel_size=(1, 1), stride=(1, 1), bias=False)
              (1): BatchNorm2d(144, eps=1e-05, momentum=0.1, affine=True, track_running_stats=True)
              (2): ReLU6(inplace=True)
            )
            (1): Conv2dNormActivation(
              (0): Conv2d(144, 144, kernel_size=(3, 3), stride=(1, 1), padding=(1, 1), groups=144, bias=False)
              (1): BatchNorm2d(144, eps=1e-05, momentum=0.1, affine=True, track_running_stats=True)
              (2): ReLU6(inplace=True)
            )
            (2): Conv2d(144, 24, kernel_size=(1, 1), stride=(1, 1), bias=False)
            (3): BatchNorm2d(24, eps=1e-05, momentum=0.1, affine=True, track_running_stats=True)
          )
        )
        (4): Module(
          (conv): Module(
            (0): Conv2dNormActivation(
              (0): Conv2d(24, 144, kernel_size=(1, 1), stride=(1, 1), bias=False)
              (1): BatchNorm2d(144, eps=1e-05, momentum=0.1, affine=True, track_running_stats=True)
              (2): ReLU6(inplace=True)
            )
            (1): Conv2dNormActivation(
              (0): Conv2d(144, 144, kernel_size=(3, 3), stride=(2, 2), padding=(1, 1), groups=144, bias=False)
              (1): BatchNorm2d(144, eps=1e-05, momentum=0.1, affine=True, track_running_stats=True)
              (2): ReLU6(inplace=True)
            )
            (2): Conv2d(144, 32, kernel_size=(1, 1), stride=(1, 1), bias=False)
            (3): BatchNorm2d(32, eps=1e-05, momentum=0.1, affine=True, track_running_stats=True)
          )
        )
        (5): Module(
          (conv): Module(
            (0): Conv2dNormActivation(
              (0): Conv2d(32, 192, kernel_size=(1, 1), stride=(1, 1), bias=False)
              (1): BatchNorm2d(192, eps=1e-05, momentum=0.1, affine=True, track_running_stats=True)
              (2): ReLU6(inplace=True)
            )
            (1): Conv2dNormActivation(
              (0): Conv2d(192, 192, kernel_size=(3, 3), stride=(1, 1), padding=(1, 1), groups=192, bias=False)
              (1): BatchNorm2d(192, eps=1e-05, momentum=0.1, affine=True, track_running_stats=True)
              (2): ReLU6(inplace=True)
            )
            (2): Conv2d(192, 32, kernel_size=(1, 1), stride=(1, 1), bias=False)
            (3): BatchNorm2d(32, eps=1e-05, momentum=0.1, affine=True, track_running_stats=True)
          )
        )
        (6): Module(
          (conv): Module(
            (0): Conv2dNormActivation(
              (0): Conv2d(32, 192, kernel_size=(1, 1), stride=(1, 1), bias=False)
              (1): BatchNorm2d(192, eps=1e-05, momentum=0.1, affine=True, track_running_stats=True)
              (2): ReLU6(inplace=True)
            )
            (1): Conv2dNormActivation(
              (0): Conv2d(192, 192, kernel_size=(3, 3), stride=(1, 1), padding=(1, 1), groups=192, bias=False)
              (1): BatchNorm2d(192, eps=1e-05, momentum=0.1, affine=True, track_running_stats=True)
              (2): ReLU6(inplace=True)
            )
            (2): Conv2d(192, 32, kernel_size=(1, 1), stride=(1, 1), bias=False)
            (3): BatchNorm2d(32, eps=1e-05, momentum=0.1, affine=True, track_running_stats=True)
          )
        )
        (7): Module(
          (conv): Module(
            (0): Conv2dNormActivation(
              (0): Conv2d(32, 192, kernel_size=(1, 1), stride=(1, 1), bias=False)
              (1): BatchNorm2d(192, eps=1e-05, momentum=0.1, affine=True, track_running_stats=True)
              (2): ReLU6(inplace=True)
            )
            (1): Conv2dNormActivation(
              (0): Conv2d(192, 192, kernel_size=(3, 3), stride=(2, 2), padding=(1, 1), groups=192, bias=False)
              (1): BatchNorm2d(192, eps=1e-05, momentum=0.1, affine=True, track_running_stats=True)
              (2): ReLU6(inplace=True)
            )
            (2): Conv2d(192, 64, kernel_size=(1, 1), stride=(1, 1), bias=False)
            (3): BatchNorm2d(64, eps=1e-05, momentum=0.1, affine=True, track_running_stats=True)
          )
        )
        (8): Module(
          (conv): Module(
            (0): Conv2dNormActivation(
              (0): Conv2d(64, 384, kernel_size=(1, 1), stride=(1, 1), bias=False)
              (1): BatchNorm2d(384, eps=1e-05, momentum=0.1, affine=True, track_running_stats=True)
              (2): ReLU6(inplace=True)
            )
            (1): Conv2dNormActivation(
              (0): Conv2d(384, 384, kernel_size=(3, 3), stride=(1, 1), padding=(1, 1), groups=384, bias=False)
              (1): BatchNorm2d(384, eps=1e-05, momentum=0.1, affine=True, track_running_stats=True)
              (2): ReLU6(inplace=True)
            )
            (2): Conv2d(384, 64, kernel_size=(1, 1), stride=(1, 1), bias=False)
            (3): BatchNorm2d(64, eps=1e-05, momentum=0.1, affine=True, track_running_stats=True)
          )
        )
        (9): Module(
          (conv): Module(
            (0): Conv2dNormActivation(
              (0): Conv2d(64, 384, kernel_size=(1, 1), stride=(1, 1), bias=False)
              (1): BatchNorm2d(384, eps=1e-05, momentum=0.1, affine=True, track_running_stats=True)
              (2): ReLU6(inplace=True)
            )
            (1): Conv2dNormActivation(
              (0): Conv2d(384, 384, kernel_size=(3, 3), stride=(1, 1), padding=(1, 1), groups=384, bias=False)
              (1): BatchNorm2d(384, eps=1e-05, momentum=0.1, affine=True, track_running_stats=True)
              (2): ReLU6(inplace=True)
            )
            (2): Conv2d(384, 64, kernel_size=(1, 1), stride=(1, 1), bias=False)
            (3): BatchNorm2d(64, eps=1e-05, momentum=0.1, affine=True, track_running_stats=True)
          )
        )
        (10): Module(
          (conv): Module(
            (0): Conv2dNormActivation(
              (0): Conv2d(64, 384, kernel_size=(1, 1), stride=(1, 1), bias=False)
              (1): BatchNorm2d(384, eps=1e-05, momentum=0.1, affine=True, track_running_stats=True)
              (2): ReLU6(inplace=True)
            )
            (1): Conv2dNormActivation(
              (0): Conv2d(384, 384, kernel_size=(3, 3), stride=(1, 1), padding=(1, 1), groups=384, bias=False)
              (1): BatchNorm2d(384, eps=1e-05, momentum=0.1, affine=True, track_running_stats=True)
              (2): ReLU6(inplace=True)
            )
            (2): Conv2d(384, 64, kernel_size=(1, 1), stride=(1, 1), bias=False)
            (3): BatchNorm2d(64, eps=1e-05, momentum=0.1, affine=True, track_running_stats=True)
          )
        )
        (11): Module(
          (conv): Module(
            (0): Conv2dNormActivation(
              (0): Conv2d(64, 384, kernel_size=(1, 1), stride=(1, 1), bias=False)
              (1): BatchNorm2d(384, eps=1e-05, momentum=0.1, affine=True, track_running_stats=True)
              (2): ReLU6(inplace=True)
            )
            (1): Conv2dNormActivation(
              (0): Conv2d(384, 384, kernel_size=(3, 3), stride=(1, 1), padding=(1, 1), groups=384, bias=False)
              (1): BatchNorm2d(384, eps=1e-05, momentum=0.1, affine=True, track_running_stats=True)
              (2): ReLU6(inplace=True)
            )
            (2): Conv2d(384, 96, kernel_size=(1, 1), stride=(1, 1), bias=False)
            (3): BatchNorm2d(96, eps=1e-05, momentum=0.1, affine=True, track_running_stats=True)
          )
        )
        (12): Module(
          (conv): Module(
            (0): Conv2dNormActivation(
              (0): Conv2d(96, 576, kernel_size=(1, 1), stride=(1, 1), bias=False)
              (1): BatchNorm2d(576, eps=1e-05, momentum=0.1, affine=True, track_running_stats=True)
              (2): ReLU6(inplace=True)
            )
            (1): Conv2dNormActivation(
              (0): Conv2d(576, 576, kernel_size=(3, 3), stride=(1, 1), padding=(1, 1), groups=576, bias=False)
              (1): BatchNorm2d(576, eps=1e-05, momentum=0.1, affine=True, track_running_stats=True)
              (2): ReLU6(inplace=True)
            )
            (2): Conv2d(576, 96, kernel_size=(1, 1), stride=(1, 1), bias=False)
            (3): BatchNorm2d(96, eps=1e-05, momentum=0.1, affine=True, track_running_stats=True)
          )
        )
        (13): Module(
          (conv): Module(
            (0): Conv2dNormActivation(
              (0): Conv2d(96, 576, kernel_size=(1, 1), stride=(1, 1), bias=False)
              (1): BatchNorm2d(576, eps=1e-05, momentum=0.1, affine=True, track_running_stats=True)
              (2): ReLU6(inplace=True)
            )
            (1): Conv2dNormActivation(
              (0): Conv2d(576, 576, kernel_size=(3, 3), stride=(1, 1), padding=(1, 1), groups=576, bias=False)
              (1): BatchNorm2d(576, eps=1e-05, momentum=0.1, affine=True, track_running_stats=True)
              (2): ReLU6(inplace=True)
            )
            (2): Conv2d(576, 96, kernel_size=(1, 1), stride=(1, 1), bias=False)
            (3): BatchNorm2d(96, eps=1e-05, momentum=0.1, affine=True, track_running_stats=True)
          )
        )
        (14): Module(
          (conv): Module(
            (0): Conv2dNormActivation(
              (0): Conv2d(96, 576, kernel_size=(1, 1), stride=(1, 1), bias=False)
              (1): BatchNorm2d(576, eps=1e-05, momentum=0.1, affine=True, track_running_stats=True)
              (2): ReLU6(inplace=True)
            )
            (1): Conv2dNormActivation(
              (0): Conv2d(576, 576, kernel_size=(3, 3), stride=(2, 2), padding=(1, 1), groups=576, bias=False)
              (1): BatchNorm2d(576, eps=1e-05, momentum=0.1, affine=True, track_running_stats=True)
              (2): ReLU6(inplace=True)
            )
            (2): Conv2d(576, 160, kernel_size=(1, 1), stride=(1, 1), bias=False)
            (3): BatchNorm2d(160, eps=1e-05, momentum=0.1, affine=True, track_running_stats=True)
          )
        )
        (15): Module(
          (conv): Module(
            (0): Conv2dNormActivation(
              (0): Conv2d(160, 960, kernel_size=(1, 1), stride=(1, 1), bias=False)
              (1): BatchNorm2d(960, eps=1e-05, momentum=0.1, affine=True, track_running_stats=True)
              (2): ReLU6(inplace=True)
            )
            (1): Conv2dNormActivation(
              (0): Conv2d(960, 960, kernel_size=(3, 3), stride=(1, 1), padding=(1, 1), groups=960, bias=False)
              (1): BatchNorm2d(960, eps=1e-05, momentum=0.1, affine=True, track_running_stats=True)
              (2): ReLU6(inplace=True)
            )
            (2): Conv2d(960, 160, kernel_size=(1, 1), stride=(1, 1), bias=False)
            (3): BatchNorm2d(160, eps=1e-05, momentum=0.1, affine=True, track_running_stats=True)
          )
        )
        (16): Module(
          (conv): Module(
            (0): Conv2dNormActivation(
              (0): Conv2d(160, 960, kernel_size=(1, 1), stride=(1, 1), bias=False)
              (1): BatchNorm2d(960, eps=1e-05, momentum=0.1, affine=True, track_running_stats=True)
              (2): ReLU6(inplace=True)
            )
            (1): Conv2dNormActivation(
              (0): Conv2d(960, 960, kernel_size=(3, 3), stride=(1, 1), padding=(1, 1), groups=960, bias=False)
              (1): BatchNorm2d(960, eps=1e-05, momentum=0.1, affine=True, track_running_stats=True)
              (2): ReLU6(inplace=True)
            )
            (2): Conv2d(960, 160, kernel_size=(1, 1), stride=(1, 1), bias=False)
            (3): BatchNorm2d(160, eps=1e-05, momentum=0.1, affine=True, track_running_stats=True)
          )
        )
        (17): Module(
          (conv): Module(
            (0): Conv2dNormActivation(
              (0): Conv2d(160, 960, kernel_size=(1, 1), stride=(1, 1), bias=False)
              (1): BatchNorm2d(960, eps=1e-05, momentum=0.1, affine=True, track_running_stats=True)
              (2): ReLU6(inplace=True)
            )
            (1): Conv2dNormActivation(
              (0): Conv2d(960, 960, kernel_size=(3, 3), stride=(1, 1), padding=(1, 1), groups=960, bias=False)
              (1): BatchNorm2d(960, eps=1e-05, momentum=0.1, affine=True, track_running_stats=True)
              (2): ReLU6(inplace=True)
            )
            (2): Conv2d(960, 320, kernel_size=(1, 1), stride=(1, 1), bias=False)
            (3): BatchNorm2d(320, eps=1e-05, momentum=0.1, affine=True, track_running_stats=True)
          )
        )
        (18): Conv2dNormActivation(
          (0): Conv2d(320, 1280, kernel_size=(1, 1), stride=(1, 1), bias=False)
          (1): BatchNorm2d(1280, eps=1e-05, momentum=0.1, affine=True, track_running_stats=True)
          (2): ReLU6(inplace=True)
        )
      )
    )
    (extra_layers): ModuleList(
      (0): _ExtraBlock(
        (0): ConvBNReLU(
          (0): Conv2d(1280, 256, kernel_size=(1, 1), stride=(1, 1), bias=False)
          (1): BatchNorm2d(256, eps=1e-05, momentum=0.1, affine=True, track_running_stats=True)
          (2): ReLU6(inplace=True)
        )
        (1): ConvBNReLU(
          (0): Conv2d(256, 256, kernel_size=(3, 3), stride=(2, 2), padding=(1, 1), groups=256, bias=False)
          (1): BatchNorm2d(256, eps=1e-05, momentum=0.1, affine=True, track_running_stats=True)
          (2): ReLU6(inplace=True)
        )
        (2): ConvBNReLU(
          (0): Conv2d(256, 512, kernel_size=(1, 1), stride=(1, 1), bias=False)
          (1): BatchNorm2d(512, eps=1e-05, momentum=0.1, affine=True, track_running_stats=True)
          (2): ReLU6(inplace=True)
        )
      )
      (1): _ExtraBlock(
        (0): ConvBNReLU(
          (0): Conv2d(512, 128, kernel_size=(1, 1), stride=(1, 1), bias=False)
          (1): BatchNorm2d(128, eps=1e-05, momentum=0.1, affine=True, track_running_stats=True)
          (2): ReLU6(inplace=True)
        )
        (1): ConvBNReLU(
          (0): Conv2d(128, 128, kernel_size=(3, 3), stride=(2, 2), padding=(1, 1), groups=128, bias=False)
          (1): BatchNorm2d(128, eps=1e-05, momentum=0.1, affine=True, track_running_stats=True)
          (2): ReLU6(inplace=True)
        )
        (2): ConvBNReLU(
          (0): Conv2d(128, 256, kernel_size=(1, 1), stride=(1, 1), bias=False)
          (1): BatchNorm2d(256, eps=1e-05, momentum=0.1, affine=True, track_running_stats=True)
          (2): ReLU6(inplace=True)
        )
      )
      (2): _ExtraBlock(
        (0): ConvBNReLU(
          (0): Conv2d(256, 128, kernel_size=(1, 1), stride=(1, 1), bias=False)
          (1): BatchNorm2d(128, eps=1e-05, momentum=0.1, affine=True, track_running_stats=True)
          (2): ReLU6(inplace=True)
        )
        (1): ConvBNReLU(
          (0): Conv2d(128, 128, kernel_size=(3, 3), stride=(2, 2), padding=(1, 1), groups=128, bias=False)
          (1): BatchNorm2d(128, eps=1e-05, momentum=0.1, affine=True, track_running_stats=True)
          (2): ReLU6(inplace=True)
        )
        (2): ConvBNReLU(
          (0): Conv2d(128, 256, kernel_size=(1, 1), stride=(1, 1), bias=False)
          (1): BatchNorm2d(256, eps=1e-05, momentum=0.1, affine=True, track_running_stats=True)
          (2): ReLU6(inplace=True)
        )
      )
      (3): _ExtraBlock(
        (0): ConvBNReLU(
          (0): Conv2d(256, 64, kernel_size=(1, 1), stride=(1, 1), bias=False)
          (1): BatchNorm2d(64, eps=1e-05, momentum=0.1, affine=True, track_running_stats=True)
          (2): ReLU6(inplace=True)
        )
        (1): ConvBNReLU(
          (0): Conv2d(64, 64, kernel_size=(3, 3), stride=(2, 2), padding=(1, 1), groups=64, bias=False)
          (1): BatchNorm2d(64, eps=1e-05, momentum=0.1, affine=True, track_running_stats=True)
          (2): ReLU6(inplace=True)
        )
        (2): ConvBNReLU(
          (0): Conv2d(64, 128, kernel_size=(1, 1), stride=(1, 1), bias=False)
          (1): BatchNorm2d(128, eps=1e-05, momentum=0.1, affine=True, track_running_stats=True)
          (2): ReLU6(inplace=True)
        )
      )
    )
  )
  (1): _Heads(
    (classifincation_heads): ModuleList(
      (0): _SSDLiteHead(
        (0): ConvBNReLU(
          (0): Conv2d(576, 576, kernel_size=(3, 3), stride=(1, 1), padding=(1, 1), groups=576, bias=False)
          (1): BatchNorm2d(576, eps=1e-05, momentum=0.1, affine=True, track_running_stats=True)
          (2): ReLU6(inplace=True)
        )
        (1): Conv2d(576, 68, kernel_size=(1, 1), stride=(1, 1))
      )
      (1): _SSDLiteHead(
        (0): ConvBNReLU(
          (0): Conv2d(1280, 1280, kernel_size=(3, 3), stride=(1, 1), padding=(1, 1), groups=1280, bias=False)
          (1): BatchNorm2d(1280, eps=1e-05, momentum=0.1, affine=True, track_running_stats=True)
          (2): ReLU6(inplace=True)
        )
        (1): Conv2d(1280, 102, kernel_size=(1, 1), stride=(1, 1))
      )
      (2): _SSDLiteHead(
        (0): ConvBNReLU(
          (0): Conv2d(512, 512, kernel_size=(3, 3), stride=(1, 1), padding=(1, 1), groups=512, bias=False)
          (1): BatchNorm2d(512, eps=1e-05, momentum=0.1, affine=True, track_running_stats=True)
          (2): ReLU6(inplace=True)
        )
        (1): Conv2d(512, 102, kernel_size=(1, 1), stride=(1, 1))
      )
      (3): _SSDLiteHead(
        (0): ConvBNReLU(
          (0): Conv2d(256, 256, kernel_size=(3, 3), stride=(1, 1), padding=(1, 1), groups=256, bias=False)
          (1): BatchNorm2d(256, eps=1e-05, momentum=0.1, affine=True, track_running_stats=True)
          (2): ReLU6(inplace=True)
        )
        (1): Conv2d(256, 102, kernel_size=(1, 1), stride=(1, 1))
      )
      (4): _SSDLiteHead(
        (0): ConvBNReLU(
          (0): Conv2d(256, 256, kernel_size=(3, 3), stride=(1, 1), padding=(1, 1), groups=256, bias=False)
          (1): BatchNorm2d(256, eps=1e-05, momentum=0.1, affine=True, track_running_stats=True)
          (2): ReLU6(inplace=True)
        )
        (1): Conv2d(256, 68, kernel_size=(1, 1), stride=(1, 1))
      )
      (5): _SSDLiteHead(
        (0): ConvBNReLU(
          (0): Conv2d(128, 128, kernel_size=(3, 3), stride=(1, 1), padding=(1, 1), groups=128, bias=False)
          (1): BatchNorm2d(128, eps=1e-05, momentum=0.1, affine=True, track_running_stats=True)
          (2): ReLU6(inplace=True)
        )
        (1): Conv2d(128, 68, kernel_size=(1, 1), stride=(1, 1))
      )
    )
    (regression_heads): ModuleList(
      (0): _SSDLiteHead(
        (0): ConvBNReLU(
          (0): Conv2d(576, 576, kernel_size=(3, 3), stride=(1, 1), padding=(1, 1), groups=576, bias=False)
          (1): BatchNorm2d(576, eps=1e-05, momentum=0.1, affine=True, track_running_stats=True)
          (2): ReLU6(inplace=True)
        )
        (1): Conv2d(576, 16, kernel_size=(1, 1), stride=(1, 1))
      )
      (1): _SSDLiteHead(
        (0): ConvBNReLU(
          (0): Conv2d(1280, 1280, kernel_size=(3, 3), stride=(1, 1), padding=(1, 1), groups=1280, bias=False)
          (1): BatchNorm2d(1280, eps=1e-05, momentum=0.1, affine=True, track_running_stats=True)
          (2): ReLU6(inplace=True)
        )
        (1): Conv2d(1280, 24, kernel_size=(1, 1), stride=(1, 1))
      )
      (2): _SSDLiteHead(
        (0): ConvBNReLU(
          (0): Conv2d(512, 512, kernel_size=(3, 3), stride=(1, 1), padding=(1, 1), groups=512, bias=False)
          (1): BatchNorm2d(512, eps=1e-05, momentum=0.1, affine=True, track_running_stats=True)
          (2): ReLU6(inplace=True)
        )
        (1): Conv2d(512, 24, kernel_size=(1, 1), stride=(1, 1))
      )
      (3): _SSDLiteHead(
        (0): ConvBNReLU(
          (0): Conv2d(256, 256, kernel_size=(3, 3), stride=(1, 1), padding=(1, 1), groups=256, bias=False)
          (1): BatchNorm2d(256, eps=1e-05, momentum=0.1, affine=True, track_running_stats=True)
          (2): ReLU6(inplace=True)
        )
        (1): Conv2d(256, 24, kernel_size=(1, 1), stride=(1, 1))
      )
      (4): _SSDLiteHead(
        (0): ConvBNReLU(
          (0): Conv2d(256, 256, kernel_size=(3, 3), stride=(1, 1), padding=(1, 1), groups=256, bias=False)
          (1): BatchNorm2d(256, eps=1e-05, momentum=0.1, affine=True, track_running_stats=True)
          (2): ReLU6(inplace=True)
        )
        (1): Conv2d(256, 16, kernel_size=(1, 1), stride=(1, 1))
      )
      (5): _SSDLiteHead(
        (0): ConvBNReLU(
          (0): Conv2d(128, 128, kernel_size=(3, 3), stride=(1, 1), padding=(1, 1), groups=128, bias=False)
          (1): BatchNorm2d(128, eps=1e-05, momentum=0.1, affine=True, track_running_stats=True)
          (2): ReLU6(inplace=True)
        )
        (1): Conv2d(128, 16, kernel_size=(1, 1), stride=(1, 1))
      )
    )
  )
)



\begin{table}[!h]
    \centering
    \begin{tabular}{l l l l l l |}
      \hline
      \textbf{Layer} & \textbf{In} & \textbf{Out} & \textbf{Kernel} & \textbf{Stride}\\\hline 
      Conv2dNormActivation & 3 & 32 & (3,3) & (2,2)\\
      Conv2dNormActivation & 32 & 32 & (3,3) & (1,1)\\  
      Conv2dNormActivation & 32 & 16 & (1,1) & (1,1)\\  
…
